model/model.pth (torch, 16787 bytes, 4 tensors)

linear1.weight f4 [256, 11]
00000000: d361 333d 05ca 86bd 7841 05bf 2d37 85bd
00000010: ad26 51be edbc 6bbd a7ae f9bd fcaa 21bd
00000020: 1a02 4cbd 19cd 47bd 6d2b 353c fee2 933c
00000030: be22 0a3f 94d6 023f 4c5e 49bc 2ef9 00be
00000040: 7c56 a2bc fb56 f0bd 3eb6 4a3e 4b84 b23e
00000050: 7d78 693e a459 993e 3519 da3e 7830 17be
00000060: 37f0 70be 572e f6bd 93ad 203e 6875 d63e
00000070: 70fd 143f 3e06 a03e 6986 1b3e 8a8a a9be
00000080: 5930 c6be 457d 5a3e cfa8 923e d0a9 37bf
00000090: 1654 7abe 1888 05be f114 ecbc 4084 31be
000000a0: cad6 a63b a23a ffbd 34a5 1bbe 1246 0fbd
000000b0: 79f1 74be ad02 663d c07a 91be de2e 1fbf
000000c0: 732e a4bd c771 46bf ba12 683d db11 54bf
000000d0: 4113 f6be c19d aabe 3c0f c03e 234b 4a3e
000000e0: 1891 ebbe 67e8 ca3e 9321 34be 85b4 673d
000000f0: b0af 833d 4115 89be 3e00 4a3e 63ad 1fbe
00000100: 2ea2 f7bd d675 813e 721e bebd c5f4 1c3f
00000110: c34d c53b eb1c 843e 4a4b 1fbe ddcf 82be
00000120: e1b6 4d3d d9ed c73d c46f 033f 8c4e c33d
00000130: a7dd b43e 024f 55bd 6d97 c3be 62b5 4b3e
00000140: 5915 0e3e 1b8e c5be efd8 c13e adf1 66be
00000150: c952 183e 39a4 d3be daa2 aebd fcd3 3ebf
00000160: 38b4 0d3e 9dfe 8dbe a5ea c3bc ac66 8b3d
00000170: f30a fc3e 1ea5 a0be 2d19 253a 6a79 0dbf
00000180: 661e d8be 66f4 c33e 3dd0 863d 6497 983e
00000190: 7397 d03e 3c5f 00bd 77d2 87be fff2 293c
000001a0: bde6 c1be 96f9 c33c 7864 0f3f 206e c33e
000001b0: 0007 353f 3263 c03e 010d 32bf ff4a c53c
000001c0: b346 603e b530 e0be 302b f23d 80e1 c1bd
000001d0: 3f5b 3dbe c669 89be 9c4e 003e d647 603d
000001e0: 917e 8bbc cc89 023f 87e8 03be e553 14bf
000001f0: d247 c83e 358c 8b3d 800f 83be e908 683c
00000200: 43d6 8bbb 5f25 503e eede cc3e 8937 753e
00000210: b999 d0be 7349 ad3e f2a9 8c3e 1cab f4bc
00000220: e67a ba3d 6da9 febc b29d b9be 72c9 3c3c
00000230: e1af ff3c 54b0 a0bc 4039 debe 3ca5 1abb
00000240: 5979 26be 2704 38bf 605f f7be 39b8 453e
00000250: 57cc d4be 75bf 8e3e 5236 5dbe 9ef5 05be
00000260: 1b64 083f 8d56 65be f038 9ebd 5563 473f
00000270: e3a9 65be c4c9 dbbe 1183 88bb 474c 2d3e
00000280: 6e22 40bd 9df8 51be 3236 eabe 1312 583e
00000290: 9f05 06be b633 06be fa53 c0be 8eaa 19be
000002a0: 2776 1abf 46cf a5bd 2e5b 33bf 6e8f de3e
000002b0: 7103 5bbe b3d8 24bf 6b1d 2dbf cf91 dd3e
000002c0: 60c8 383b 97d0 123f 5c25 3bbf 9aaf 043e
000002d0: 01a7 9fbc 14f3 84be 9302 3d3e fcdd 20be
000002e0: e0a9 0c3d e488 d4be c1f7 9bbd 4215 553d
000002f0: 2e84 34be 4019 1ebf 158c 943e aef9 14bf
00000300: 6fbf 783d e838 1ebf 75df 583d 86cf 58bf
00000310: 64d1 36bd cb8c 09bf c0ff f23c 786a 983e
00000320: 2864 153d 5c6c cbbd c06a 583c a837 9f3d
00000330: 6876 d83d b737 52be 8e9a 49be e749 90be
00000340: b20f 48be 25c0 22bf bea2 d6bc 20f7 993e
00000350: 2cc3 78be 5311 953e 9050 723e 7e40 283e
00000360: 5ea8 e3be 29bd 9ebc 789c 183e 63a6 5b3e
00000370: 2eb4 28be d6cf b4bc 7b19 17be f341 53be
00000380: d93f 0bbf f77c ee3e b089 fa3e e747 893d
00000390: 9411 ce3e 964a 4dbf 0688 18bf 36dc 36be
000003a0: bf7c f7be 7841 2dbb c007 41bc 1c31 f6bd
000003b0: 1c0c 3dbe 241f cebe 036c 913d a50e 4b3e
000003c0: 02e7 013e 776d 57be c06c c6be 5c44 7bbe
000003d0: a49f 62bd 98c2 873e 9859 a53e 5d86 4fbd
000003e0: 5f37 f1be efec a9be b2d6 e7be 3423 e53d
000003f0: d542 063f f733 d8be 63f7 b13e 676f 3e3e
0.043794464 -0.06581501 -0.5205302 -0.065046646 -0.2042491 -0.05755322 -0.121915154 -0.039469704
-0.04980669 -0.04877958 0.011057717 0.018052574 0.5395926 0.5110867 -0.0122905485 -0.12595055
-0.01981663 -0.1173534 0.19796082 0.34866557 0.22799869 0.29951203 0.42597356 -0.14764583
-0.23529135 -0.120205574 0.15691213 0.4188645 0.58199215 0.31254762 0.15187992 -0.3311351
-0.3870876 0.21336849 0.28644416 -0.7174349 -0.24446139 -0.13040197 -0.02881858 -0.17335606
0.005091523 -0.12462355 -0.15199739 -0.034978934 -0.2392024 0.056154896 -0.28413963 -0.6218089
-0.08016672 -0.7751736 0.056658484 -0.82839745 -0.48061565 -0.33323482 0.37511623 0.19755225
-0.46009135 0.39630434 -0.17590933 0.05656864 0.06429994 -0.26774028 0.19726655 -0.15593486
-0.1209148 0.25285214 -0.09283151 0.6131099 0.006021233 0.25803313 -0.15556064 -0.25549212
0.050223235 0.09762163 0.51342416 0.09536466 0.35325357 -0.0520773 -0.38201466 0.19893411
0.13875331 -0.3858498 0.3786082 -0.2255313 0.1487533 -0.4133623 -0.08527155 -0.7454221
0.13838279 -0.27733317 -0.023915598 0.068066925 0.49227104 -0.31375974 0.0006298002 -0.5526339
-0.42210692 0.382724 0.06582687 0.29803002 0.40740547 -0.031340823 -0.2652776 0.010372876
-0.37871352 0.023922723 0.5601268 0.38169956 0.70713806 0.3757568 -0.6955109 0.024083612
0.2190197 -0.4378716 0.118246436 -0.09466839 -0.18491839 -0.2683851 0.12529987 0.054756008
-0.017028125 0.5099151 -0.12881671 -0.5794051 0.39117295 0.06813852 -0.25597763 0.014162281
-0.0042674853 0.20326756 0.40013832 0.23946966 -0.4074228 0.338451 0.27473408 -0.029866748
0.09105472 -0.031086648 -0.36253124 0.011522638 0.031211795 -0.01961533 -0.43403053 -0.0023597023
-0.16257228 -0.71881336 -0.48314953 0.19308557 -0.4156215 0.27880445 -0.21602753 -0.13081977
0.5327775 -0.22396298 -0.07725704 0.77885944 -0.22428088 -0.42927372 -0.004166015 0.16923629
-0.046907835 -0.20504995 -0.45744473 0.21100645 -0.13088082 -0.13105664 -0.3756407 -0.15006468
-0.60336536 -0.08096175 -0.70061004 0.43468803 -0.21388032 -0.64393157 -0.67623013 0.43275306
0.0028195605 0.5734953 -0.7310388 0.12957612 -0.019488813 -0.25966704 0.18458013 -0.1570968
0.034341693 -0.4151069 -0.07615615 0.052022226 -0.17628548 -0.6175728 0.29013124 -0.5819348
0.06072944 -0.6180558 0.05294748 -0.84691656 -0.044633284 -0.5373046 0.029662967 0.2976873
0.03647247 -0.09932777 0.013209045 0.077742875 0.10569459 -0.20529066 -0.19687864 -0.28181383
-0.19537237 -0.6357444 -0.026200648 0.30071354 -0.24293202 0.2911478 0.23663545 0.16430852
-0.4446439 -0.019377308 0.14903438 0.2145019 -0.16474983 -0.02207176 -0.14755814 -0.20630626
-0.543943 0.46579716 0.48933172 0.067031674 0.40247786 -0.80191934 -0.59582555 -0.17857441
-0.4833736 -0.0026436727 -0.011781633 -0.120210856 -0.1846165 -0.40258133 0.0710068 0.19829805
0.12685779 -0.21037851 -0.38754845 -0.24537796 -0.055328026 0.2651565 0.32294917 -0.05066525
-0.47112557 -0.33188578 -0.45280987 0.11188355 0.5244573 -0.42227146 0.34759054 0.18597184

linear1.bias f4 [256]
00000000: 4ee2 bbbd 027c 5fbe 27fd acbe 024a a1be
00000010: 00fb 9f3e 1c26 61be e80a 9ebe fa12 ad3e
00000020: 58f0 febd fdfa d8be 0a50 d9bd 1c74 8fbe
00000030: fe06 b2bc af0a 0abe 3c27 9e3e 6df5 763e
00000040: 46a0 633e 186f e23e 2f43 84be 9c43 2b3e
00000050: f527 073e a5b5 b5be 78f8 6dbd 0de5 d3bc
00000060: c762 d3be 7ea2 aabe 0205 6a3d 8873 11be
00000070: fe7d 7fbd 97b3 993e 803e f0be c4ce 59be
00000080: 1141 aebe 30f1 97be 5974 c6bc 236a 843e
00000090: b964 c6be 8ff6 94be c491 9cbe 3e29 b5be
000000a0: 8570 e3bc fd2f 5d3e 3f4d c3bd 8529 28be
000000b0: 4690 eabd a667 16bd b13e 3fbe 2339 4ebe
000000c0: d1cc e0bd 16f7 c1bd 9d21 cc3c 779a 16be
000000d0: e0f0 133f acf0 843e e269 273e cc98 a0bd
000000e0: 5bbb 093c 5f15 babd e3c2 a83e 90f0 84be
000000f0: 9255 debe 3cb8 94be cbb0 77bc 2066 8d3d
00000100: 7469 cbbc 5647 333c c940 97be 0638 5c3e
00000110: d4c5 163e 31c9 85be c4f0 e3bd 91b1 a7be
00000120: 216b 7fbe 3e09 95be 8dfd 61be 41df a8be
00000130: ec6a 90be 330f 0cbe ff23 ccbe a094 4dbe
00000140: 0853 4dbe 8a75 2ebe 1903 043e 19e6 7f3e
00000150: fff0 5d3e 6745 bdbd c5b8 83bd 09f9 bdbe
00000160: edb1 5e3e f915 47be 78c1 0c3e 404b 84be
00000170: cabf b5be aa0d e9be 8e1d 533e f6df 7bbe
00000180: 706d aabe c20d 3fbe aa06 ccbc f012 3dbe
00000190: c4c8 12be 6be5 85be 632e eb3d aeee a6be
000001a0: edbe aebe a0be 3ebc b541 60be aa7e 23bc
000001b0: 51ef 01be b476 f43d c9ab cdbe 1112 563e
000001c0: a9ef 7b3d b647 57bd b81d 78bb 3fe6 f73d
000001d0: 813e 5b3e 39f9 fbbd 6fc9 e83d fd7d c9bd
000001e0: 30af a5be fb9a babe ef72 bfbe 058d 8bbd
000001f0: cf7f 87be d33c e2be feca 583e ec6b 143e
00000200: fbb2 8bbe 533a d83e d768 94be 3e44 10be
00000210: 2774 ccbe 44fe 843e 0daa 5ebd 4041 2ebe
00000220: 87eb 50bd ed60 043f d9d2 a5bd 7e8a 96be
00000230: 3335 bb3d de77 e2be 4db6 46be 565a 023f
00000240: 66b8 a9bc 1ddc 6ebe dde0 85be d867 8abe
00000250: 1647 aebe 4ed6 58bd 43b1 d3bd 5560 a3be
00000260: 8f6b e5bd 3773 6ebe 4ede e0bd d961 9cbe
00000270: 680e 783e 4f86 44be 7fe7 86be 55b1 66bd
00000280: a01e 95be 797c 9ebe e170 1dbf 31b5 08be
00000290: cfac 88bd 6e59 18be d496 72be f16e 553e
000002a0: bdf5 d0bc 19b2 0bbf 7602 b5be 0207 89be
000002b0: 9050 2cbd 9c20 9d3e 8598 c4be f935 913e
000002c0: cfe7 92be 740d dcbe 12e7 9bbe 098b ffbd
000002d0: f9b8 7fbe 0fd3 38be 3730 cdbd 0d4b c5be
000002e0: baf2 3bbe 6668 88be 6608 40bc bfe1 adbe
000002f0: 42ef 98be f9b9 d03d c990 1c3f 991e e83e
00000300: 65d2 fbbd f066 24be ddb6 cb3e dc1b acbe
00000310: 6191 8fbe 5cd2 263f 42ee 813e 97f4 533f
00000320: fb3f a5be 0a9b bcbd 39dd 76be c97f a0be
00000330: 9bca 74be df0a 2cbe dd62 1e3f 2054 a1be
00000340: d831 93be 2616 32be 493e 0e3f 82db 6f3d
00000350: c8d3 0bbe d516 6ebe 6b16 053d ef87 b1bb
00000360: edbb 7c3e acb4 23bd 793e 3ebe 7ac1 b1be
00000370: 4ae4 13be e98b 403d c460 d0bd fcb1 61be
00000380: 8f07 abbe 7d9a c5bd 8830 12be 752c 33be
00000390: 7753 e3be 39f7 8abe 0aff 813e 7631 4dbe
000003a0: f74f 97be e5df 17be 7012 c5be de19 28be
000003b0: 950b 7c3b 65a3 d93c 0969 1ebe b56a 4b3e
000003c0: 942b 86bd 3621 89bd ba6e 05bf 7a25 aabc
000003d0: 0a0e 9bbe a55b a2be 9f83 9bbe 7a87 47bd
000003e0: 502f debe 576b bfbe 4639 123d fca8 a03d
000003f0: 283f aabe 9b9e e5be 26c5 813f 914f 553e
-0.091740236 -0.21824649 -0.3378689 -0.31501776 0.31246185 -0.21987194 -0.30867696 0.3380354
-0.12448186 -0.4237899 -0.10610969 -0.28018272 -0.02173185 -0.13480638 0.30889308 0.2411706
0.22229108 0.44225383 -0.25832507 0.1672501 0.13198836 -0.35490146 -0.058098286 -0.025866056
-0.412863 -0.33327097 0.057133682 -0.14204228 -0.062376015 0.3001983 -0.46922684 -0.21270281
-0.34034017 -0.296762 -0.0242254 0.25862226 -0.3874872 -0.2909436 -0.3057996 -0.35383028
-0.027763614 0.21600337 -0.09536218 -0.16422088 -0.11453299 -0.03671994 -0.18676259 -0.20138983
-0.10976566 -0.09470956 0.024918372 -0.14707361 0.5778942 0.25964868 0.16348985 -0.07841644
0.008406485 -0.090861075 0.32961187 -0.25964785 -0.4342466 -0.2904681 -0.015117834 0.069042444
-0.024830557 0.010942301 -0.29541615 0.21505746 0.14723903 -0.2613006 -0.11129907 -0.3275266
-0.2494321 -0.29108614 -0.22069378 -0.3298283 -0.28206575 -0.13677673 -0.39871213 -0.20076227
-0.20051205 -0.17037025 0.12891807 0.24990119 0.21673964 -0.09241753 -0.06431726 -0.3710406
0.21747561 -0.19441976 0.13745677 -0.2583866 -0.35497886 -0.45518237 0.20616743 -0.24597153
-0.3328662 -0.18657592 -0.024905521 -0.18464255 -0.14334399 -0.26151595 0.11483457 -0.32603973
-0.3413004 -0.011642128 -0.21900065 -0.00997893 -0.12688948 0.11936703 -0.40170124 0.2090533
0.061507855 -0.052558623 -0.003785951 0.12104463 0.21410562 -0.12303395 0.113665454 -0.098384835
-0.3236022 -0.36446366 -0.37392375 -0.06814007 -0.26464698 -0.4418703 0.21171185 0.14494294
-0.2728499 0.42231998 -0.28986236 -0.14088532 -0.39932367 0.2597524 -0.05436139 -0.17017078
-0.051005866 0.51710397 -0.080968566 -0.29402536 0.09141006 -0.44232076 -0.1940548 0.5091909
-0.02071781 -0.23326154 -0.2614812 -0.27032351 -0.3403861 -0.052938752 -0.10336544 -0.31909433
-0.11202156 -0.23286138 -0.10979901 -0.30543402 0.24224246 -0.1919186 -0.26348493 -0.05632146
-0.29124928 -0.3095434 -0.61500365 -0.13350369 -0.066735856 -0.14877865 -0.23690349 0.20843102
-0.025507802 -0.5456863 -0.3535344 -0.2676316 -0.042069018 0.3068894 -0.38397613 0.2836149
-0.2869248 -0.42979014 -0.3044973 -0.12477691 -0.24972905 -0.18049262 -0.10018962 -0.38533822
-0.18354312 -0.2664215 -0.011720752 -0.33961293 -0.2987004 0.101917215 0.61158425 0.45335844
-0.12295989 -0.16054893 0.3978795 -0.33615005 -0.28040603 0.6516473 0.2537709 0.8279509
-0.32275376 -0.09209259 -0.24107827 -0.31347492 -0.23905413 -0.16801022 0.61869603 -0.31509495
-0.28748965 -0.17391261 0.5556379 0.05855895 -0.13655007 -0.23250897 0.032492083 -0.005417816
0.24681063 -0.039967224 -0.18578519 -0.34717923 -0.14442554 0.04700843 -0.101747066 -0.22040552
-0.33404204 -0.09648607 -0.14276326 -0.17497428 -0.44399616 -0.2714174 0.25389892 -0.20038399
-0.29553196 -0.14831503 -0.3849063 -0.16416118 0.0038459052 0.02656717 -0.15469755 0.19864924
-0.065512806 -0.066957876 -0.5212208 -0.020769823 -0.30284148 -0.31710544 -0.30373856 -0.048713185
-0.43395472 -0.3738658 0.03569915 0.07844731 -0.3325131 -0.4484757 1.013829 0.20831133

linear2.weight f4 [3, 256]
00000000: 65e6 0cbc afb4 3dbd d00f adbd b87d 75bc
00000010: bffd 123e f376 c13c 6582 a6bd f20f 893e
00000020: ea01 cabe 2ee6 05bf 1bca 483b c142 aabe
00000030: c044 8c3d 56c0 a3be 1ed0 4e3e f928 d63e
00000040: 3ba0 d23d 880e e63e e077 2ebd 5c79 4d3e
00000050: d596 c8be 5475 beb9 b49f c4be 86b5 ab3d
00000060: cd13 4d3c 927d a4bd dcc0 10bf b9e0 5d3e
00000070: e0f4 babd 44ea 9a3e c333 5dbe bdaa 20be
00000080: 8904 2b3d b1ef 59bd 6a66 743d e8a9 1b3f
00000090: 4e25 9ebe eca3 61be 5c82 f0bc 747f e6bb
000000a0: a9e5 483e acd0 d93e dcea bcbe 095c 89be
000000b0: 3a7d 2f3e 5a83 3bbd ef98 18be aaf3 14bd
000000c0: c95b 8dbe 3e63 793e 9a09 dabe 7193 8ebe
000000d0: 0a52 0d3f 24f2 eb3e 823f 9f3e 5d83 99be
000000e0: 44bb be3e a15c 0fbe 05b1 ec3d 8451 00bd
000000f0: 7160 6abd 40a1 8e3c 9d99 833e 4121 e93d
00000100: b97e a83e 7ffe 90be e7e2 283d c54c 023e
00000110: cc80 5e3e 586e 60bd 5ed9 d6be a7f6 11be
00000120: 8934 b3bd ae17 5a3d 7ac2 3cbd 5044 45bc
00000130: a6e2 18be b3dc 40be f148 433c a0d1 61b8
00000140: d2cd e03b 0a6d 053e 2b65 0abe 954c 0d3f
00000150: 0f50 1e3e ee0b 01bf cd44 32be 9402 0d3d
00000160: 2918 253e 9761 8dbe ba2f 98be 0dac 413a
00000170: e39c 72be d23d 69bc ea13 873e 0464 bcbc
00000180: e185 9fbd 5adf adbd 2f00 443e e0e8 743b
00000190: e3e2 d8bd eabb ec3c aead 7b3e eb59 8f3d
000001a0: 635b d5be f542 123d a33d ad3c 620c ce3e
000001b0: 3ed3 2cbd a10d da3c b8f0 e73d cc4b 043e
000001c0: dbe4 783d 2ddc dabd 2f82 23be ed67 033f
000001d0: cf60 ac3d 6423 a33c 4bf6 c53e a9dc aebc
000001e0: ecf7 cfbe 5d66 1e3c ddc7 54be 8b58 703c
000001f0: 9227 43bd 356f 15bd 472a 1e3f 0779 a03d
00000200: 4698 cabc 71f1 203e b6ef d9bd f50d a8be
00000210: 5ee1 38bd 7e79 f63d f7ab 26be e2a0 d6be
00000220: 6b06 a23e f43c 0d3f 9707 2abd 43cc fabc
00000230: c243 b13e a002 09be 8798 a0bd e1b4 c73e
00000240: bfd0 ac3e 1926 cbbb 6f37 4b3b d2b8 79bd
00000250: 4b98 bb3b df50 66be fe10 2ebe cbcd 96bd
00000260: 1b1a 69bc 47ba c8bd 9cf1 043b 092b 96bc
00000270: f830 db3e 7e6c 3e3b b91e a4bd 05b5 dd3d
00000280: af57 19be 2c85 e5bc 6ac8 c83c c3fa 14be
00000290: 3dc3 07be 3fc9 83be a49f 3abd d5a2 293e
000002a0: 4446 d8bc eec3 23be 084a a0bd 662b c3be
000002b0: f5b8 9fbe 8413 923e 780b 33bc 6291 b63e
000002c0: 6dc7 56be f9d0 49bc 30f1 66bd c6bd c6be
000002d0: 1001 dd3c 7d66 59bb c655 893e bd34 33be
000002e0: ccac 40bc cf24 75be 4b73 b23e dadf 4ebe
000002f0: 9a26 bdbd 2e2b da3e 1c22 1e3e bd6a 0a3e
00000300: 3369 643e 3b4b 493d 9059 bb3e e027 43bd
00000310: cd81 97bc 059a 8e3e 177b 193f 0057 0a3f
00000320: c859 14be 027d 48be eada 6cbe 060a 4bbd
00000330: 51e0 85bd 850d d13c ddb3 5a3e cb7f 06be
00000340: edb6 773c 05fa ab3d d91e 563e 7b70 c23e
00000350: f8bc b1be 7462 e4be 178d 5e3e c6ed 143d
00000360: ed37 f43e 1977 17be 172d ef3c 0dd6 d83c
00000370: a03b 8a3c cfce e9be 7a6f 02bc 1950 d8bc
00000380: 65bb c63c 3e4c 9a3e d826 bfbd 625d 1abf
00000390: b4ae d9ba b239 32bd 3ca5 c33e 2fce ebbe
000003a0: af56 52bc 71d7 29bd 2260 b9be fa0a a3bd
000003b0: 6420 f0bc 9565 183e e95b b53d e02e 423e
000003c0: 281b 1dbe 5e9a 97be 5d53 6cbc d9c0 2ebe
000003d0: 7c3c 81bd 7881 0dbe 609a f9be 0f1a 4e3e
000003e0: a222 06be 882a 96bc 7b98 f0be 043f 893e
000003f0: 20c9 233c 40b2 923c 2b94 543e 50f0 1f3f
-0.008599852 -0.04631489 -0.084502816 -0.014983587 0.14354609 0.02361629 -0.081303395 0.26769978
-0.39454585 -0.5230435 0.0030638042 -0.33254054 0.068490505 -0.31982678 0.20196578 0.41828135
0.10284468 0.4493296 -0.04259479 0.20065826 -0.39177576 -0.0003632704 -0.38403094 0.08384232
0.012516928 -0.08031763 -0.5654428 0.21667756 -0.091287374 0.30256855 -0.21601777 -0.15690131
0.041752372 -0.053207103 0.059667982 0.6080613 -0.30887836 -0.22035187 -0.029359035 -0.0070342366
0.19618858 0.42542017 -0.36897933 -0.2682803 0.17137614 -0.045779563 -0.1490209 -0.03636519
-0.2760909 0.24354264 -0.4258545 -0.27846864 0.55203307 0.46083176 0.3110314 -0.29983035
0.37252247 -0.14000179 0.11557201 -0.03132774 -0.05722088 0.017410874 0.25703135 0.11383296
0.32909182 -0.28319165 0.041232016 0.12724598 0.2172882 -0.054792732 -0.41962713 -0.14254247
-0.08750255 0.05324524 -0.046083905 -0.012040213 -0.1493021 -0.1883419 0.011919246 -5.383941e-05
0.006860473 0.13029876 -0.13515155 0.5519498 0.15460227 -0.5040883 -0.17409058 0.034426287
0.16122498 -0.27613518 -0.29723912 0.0007388003 -0.2369266 -0.0142359305 0.2638238 -0.02299691
-0.07789207 -0.084898666 0.19140695 0.003737025 -0.1059015 0.028898198 0.24577972 0.06999572
-0.41671285 0.035708386 0.021147555 0.40243822 -0.042193644 0.026617827 0.1132521 0.12919539
0.06076513 -0.106865264 -0.1596763 0.51330453 0.08416902 0.019914337 0.3866447 -0.021345453
-0.40618837 0.00966796 -0.20779367 0.014669548 -0.04764516 -0.03648301 0.6178326 0.07835584
-0.024730813 0.15717103 -0.10641424 -0.32823148 -0.045136802 0.120348915 -0.16276537 -0.4191962
0.31645522 0.5517113 -0.041511144 -0.030614978 0.34622008 -0.13379908 -0.07841592 0.39005187
0.3375301 -0.00619961 0.0031008383 -0.060967274 0.005724942 -0.22491787 -0.1699867 -0.07363471
-0.014227415 -0.098011546 0.0020285612 -0.018331068 0.42810798 0.0029056366 -0.080136724 0.10825542
-0.14974855 -0.028017603 0.024509627 -0.14548783 -0.13258071 -0.25739476 -0.0455624 0.16566022
-0.026400693 -0.1599271 -0.0782662 -0.38119048 -0.311958 0.28530514 -0.010928027 0.35657793
-0.20974512 -0.012317889 -0.056382358 -0.3881666 0.026978046 -0.003317266 0.26823252 -0.17500587
-0.011759948 -0.23939823 0.34853587 -0.2020258 -0.09235878 0.42611068 0.15442699 0.1351728
0.22305755 0.04914401 0.36591768 -0.04764545 -0.018494511 0.27851883 0.59953445 0.54039
-0.14487374 -0.19578937 -0.23130384 -0.049570106 -0.065369256 0.025519142 0.21357675 -0.13134687
0.0151192965 0.08397297 0.20910205 0.3797644 -0.34714484 -0.44606364 0.21733509 0.03635957
0.47698918 -0.14791526 0.029196305 0.026469255 0.016874135 -0.45665595 -0.007961148 -0.026405381
0.024259279 0.30136293 -0.09333581 -0.6029874 -0.0016607852 -0.043512054 0.38212 -0.46055743
-0.01283805 -0.041465227 -0.36206156 -0.07961078 -0.02931232 0.148825 0.08855421 0.18963194
-0.1534239 -0.2960996 -0.014424172 -0.17065753 -0.063103646 -0.1381892 -0.4875059 0.20127128
-0.13099149 -0.018330827 -0.46991333 0.2680589 0.009996682 0.017907262 0.20759647 0.6247606

linear2.bias f4 [3]
00000000: 3adc 953e eac9 463d 5076 313d
0.29269582 0.048532404 0.043325722
